model/model_parameter.pkl (torch_old, 318834 bytes, 4 tensors)

L1.weight f4 [100, 784]
0	0x3b824910	0.003975995
1	0xbd090443	-0.03345133
2	0xbcf871f8	-0.030327782
3	0xbca86245	-0.020554671
4	0x3b4fe380	0.0031721294
5	0xbcce78d3	-0.025204098
6	0x3c1dbbb0	0.009627268
7	0xbc31fda0	-0.010863692
8	0x3c9017b4	0.017589428
9	0x3cc74928	0.024326876
10	0xbcb950c8	-0.022621527
11	0xbc1d24c0	-0.009591281
12	0xbcba9243	-0.022774821
13	0x3d078881	0.033089165
14	0x3c19381b	0.0093517555
15	0xbd00e160	-0.031464934
16	0x3cdc3cce	0.026884463
17	0xbcf0e4ac	-0.029405914
18	0x3b120b70	0.002228465
19	0x3c9d086a	0.019169051
20	0x3d099b13	0.033595156
21	0x3d030571	0.03198761
22	0x3d11e8f9	0.03562257
23	0x3cb39462	0.02192134
24	0xbc3bb1ee	-0.011455996
25	0xbcd57378	-0.026056036
26	0x3c077928	0.008268632
27	0xbc1ea220	-0.009682208
28	0xbb7211b0	-0.0036936812
29	0x3cedec96	0.029043477
30	0xbb5cdfb0	-0.0033702664
31	0x3c622560	0.013802856
32	0x3c9b994c	0.018993996
33	0xbd0c4189	-0.034242187
34	0xbcd2b2e6	-0.025720071
35	0xbce75a63	-0.028241342
36	0x3b11c554	0.002224286
37	0x3caccfd8	0.021095201
38	0x3bef534d	0.0073036314
39	0x3c75a51f	0.014992981
40	0xbc744e85	-0.014911299
41	0x3c44057c	0.011964198
42	0x3c4cf961	0.012510628
43	0xbbb60547	-0.0055548283
44	0x3ca5c8c4	0.020237334
45	0x3c95ba79	0.018277394
46	0xbd155a89	-0.036463294
47	0xba8f71f1	-0.0010943991
48	0x3c9b4c28	0.018957213
49	0x3cd7be91	0.026335986
50	0x3a548cc6	0.0008108135
51	0xbb1973f1	-0.0023415054
52	0xbbdbbe00	-0.0067059994
53	0x3aea27a0	0.0017864592
54	0xbb84f658	-0.004057687
55	0x3d00d5cd	0.031453896
56	0x3cf91a7a	0.030408133
57	0x3afd80c0	0.0019340739
58	0x3bd8c9e7	0.0066158655
59	0x3bc5f02e	0.0060405945
60	0x3b2d0596	0.0026401035
61	0xbc8444cd	-0.016146088
62	0x3c8d0ea9	0.017218905
63	0xbc76ec56	-0.015070995
64	0xbc0d6f8e	-0.008632554
65	0xbd048597	-0.032353964
66	0xbcb15ab7	-0.021649702
67	0xbd25eed9	-0.040510986
68	0x3ccd0673	0.02502749
69	0xbbc97406	-0.0061478643
70	0x3b320e76	0.0027169264
71	0x3d02e325	0.031954903
72	0xbaa04181	-0.0012226553
73	0xbc65a33f	-0.014015972
74	0x398e075b	0.0002708983
75	0xbc0216fa	-0.007940048
76	0xbcce3ebf	-0.025176404
77	0xbb6e6746	-0.0036377474
78	0xbc6bf5d8	-0.014401875
79	0xbc813f0d	-0.015777135
80	0x3aefca9a	0.0018294633
81	0xbd023ffb	-0.031799298
82	0xbbf8af08	-0.0075892247
83	0xbcdb4218	-0.026764914
84	0xbaa325c0	-0.0012447163
85	0x3c05b150	0.00815995
86	0xbc99a070	-0.01875326
87	0x3d00d1b7	0.03145
88	0xbcd19d4f	-0.025587706
89	0xbc1219e0	-0.008917302
90	0xbc3da8ed	-0.01157592
91	0x3c4b1ff4	0.012397755
92	0xbce20988	-0.027592435
93	0x3c540cd5	0.0129425125
94	0xbbaaf41a	-0.0052170875
95	0x3c513243	0.012768331
96	0x3c83ba18	0.016079947
97	0x3a31acd3	0.0006777767
98	0xbd097bff	-0.033565518
99	0x3c6bd9f0	0.014395222
100	0xbcd75c48	-0.02628912
101	0xbd5581e5	-0.05212583
102	0x3b1fffef	0.0024414023
103	0xbb4fe67f	-0.003172308
104	0xbd681b0a	-0.05666641
105	0xbd0709e7	-0.032968428
106	0x3baabec8	0.005210731
107	0xbd0dfc07	-0.03466418
108	0x3be636e1	0.007025585
109	0x3cf023cf	0.02931395
110	0xbb524270	-0.0032083057
111	0x3d06db9b	0.032924276
112	0xbbb3e0c8	-0.0054894425
113	0x3d008903	0.031380665
114	0xbba46d67	-0.0050179246
115	0xbccd6a0c	-0.025074981
116	0x3cf79ea6	0.030227017
117	0xbcbb1154	-0.022835411
118	0xbb652d58	-0.0034969654
119	0xbd207083	-0.0391698
120	0xbd321903	-0.043480884
121	0x3c08f896	0.008360049
122	0x3ce8bf95	0.028411666
123	0x3ca481b3	0.020081377
124	0x3cdad975	0.02671502
125	0x3ce93b14	0.028470553
126	0x3d36f74c	0.044669434
127	0xbc401892	-0.011724608
128	0x3ce52374	0.027971007
129	0x3cf2ca2b	0.029637417
130	0xbc8eec1c	-0.01744657
131	0x3bc59b78	0.006030496
132	0xbc160557	-0.009156547
133	0xbc0e96ea	-0.008702973
134	0x3a06665d	0.00051269477
135	0xbcb6ea90	-0.022328645
136	0xbca08189	-0.019593017
137	0xbabbf59d	-0.0014340166
138	0x3b22cac7	0.0024840103
139	0xbd0a3f05	-0.033751506
140	0xbc188c0a	-0.009310732
141	0x3bb44f48	0.005502615
142	0xbc4e4c59	-0.012591445
143	0xbce72054	-0.028213657
144	0xbd0e4ca8	-0.034741074
145	0x3bbbae24	0.0057275463
146	0xbc63d0d8	-0.013904773
147	0xbd2e0706	-0.042487167
148	0xbcd39fc1	-0.025833013
149	0x3cd22702	0.025653366
150	0x3ca36823	0.019947117
151	0x3ddd615e	0.10809587
152	0x3d508f74	0.050918058
153	0x3caa3ab8	0.020779952
154	0x3d5fdd25	0.05465426
155	0x3cf73c12	0.030180011
156	0x3d2d6524	0.042332783
157	0x3d6d6166	0.057954215
158	0x3c479bbc	0.012183126
159	0x3da71c9b	0.08159753
160	0x3d5ef734	0.05443497
161	0x3daf297f	0.085528366
162	0xbc94cb45	-0.018163333
163	0xbcf979c1	-0.030453565
164	0x3c8532dd	0.016259605
165	0x3b32c059	0.0027275293
166	0xbc5102d2	-0.01275702
167	0x3ccb3d57	0.024809523
168	0x3d05cf2f	0.03266829
169	0x3cecf316	0.028924506
170	0x3d0004be	0.031254523
171	0xbb0f74d6	-0.0021889708
172	0xbd2f9e72	-0.042875715
173	0xbcd43d3c	-0.025908105
174	0xbd926245	-0.0714765
175	0xbd815e73	-0.06316843
176	0xbcb6aaf0	-0.022298306
177	0xbcac0e2e	-0.021002855
178	0x3c2567e4	0.01009557
179	0xbd6e0852	-0.058113404
180	0xbd658f5e	-0.05604493
181	0xbc18712e	-0.009304328
182	0x3d492504	0.049107566
183	0x3d538245	0.051637907
184	0x3d4b4a6f	0.049631532
185	0x3d1ee36f	0.038791116
186	0xbb650126	-0.0034943311
187	0x3d82c1d0	0.06384623
188	0x3cfd5e68	0.030928805
189	0x3cde8a16	0.027165454
190	0xba8b71ea	-0.0010638807
191	0x3c3c7ec2	0.011504831
192	0x3c651b46	0.013983553
193	0x3c3ef865	0.011655902
194	0x3b3bde1f	0.002866633
195	0x3ce73152	0.02822176
196	0xbc8d670b	-0.017261049
197	0x3ccaf9b6	0.024777275
198	0xbaee8b39	-0.001819945
199	0xbd118898	-0.035530657
200	0xbd5c98ee	-0.053856783
201	0xbd8c06f4	-0.06837264
202	0xbd60531a	-0.05476675
203	0xbd92ef50	-0.071745515
204	0x3cfce61a	0.03087144
205	0xbb32653a	-0.002722098
206	0xbcf3cd99	-0.029761123
207	0xbce9b3db	-0.028528145
208	0xbd928ae7	-0.071554
209	0x3cb20027	0.021728588
210	0x3d45904e	0.048233323
211	0x3ddafd6b	0.10692867
212	0xbbb32786	-0.005467358
213	0xbcaf42a9	-0.02139409
214	0xbc8d31dd	-0.01723569
215	0x3d55df56	0.052214943
216	0x3cecf479	0.028925167
217	0x3cf7197d	0.030163521
218	0x3d85c752	0.06532158
219	0x3da7696c	0.081744045
220	0x3d385604	0.045003906
221	0x3c5afaac	0.013365429
222	0x3d18a3b3	0.03726549
223	0xb8f7f7a2	-0.00011824003
224	0xbce62dfe	-0.028098103
225	0xbceeb4c1	-0.029138925
226	0x3c8a9b7e	0.016919848
227	0xbc471311	-0.012150542
228	0xbd32cf0a	-0.04365448
229	0xbd1f9546	-0.038960718
230	0xbc303b8f	-0.010756387
231	0xbb889fe9	-0.0041694534
232	0x3cd453d1	0.025918873
233	0x3ce2372a	0.027614195
234	0xbd66e3bc	-0.05636953
235	0xbc354e46	-0.011066025
236	0x3d4680c1	0.048462633
237	0x3e0689e3	0.13138537
238	0x3d71b5d1	0.059011284
239	0x3d7054b2	0.05867452
240	0x3d36ebfe	0.044658653
241	0xbd4d37d7	-0.05010208
242	0xbc9e556d	-0.019327844
243	0x3dca2e27	0.09872084
244	0x3cd6afd6	0.026206892
245	0x3cf9e1da	0.030503202
246	0xbcf3e664	-0.029772945
247	0x3d379b87	0.044826057
248	0x3da23fdb	0.07922336
249	0x3d3d4b35	0.0462143
250	0x3cc73685	0.02431799
251	0xbc87ffd9	-0.01660149
252	0x3caa91b9	0.02082144
253	0xbcf2a0b3	-0.029617643
254	0xbd08af7d	-0.033370484
255	0xbd981a96	-0.07426946

L1.bias f4 [100]
0	0x3d87176b	0.065962635
1	0x3e388b07	0.18021785
2	0x3e486712	0.19570568
3	0xbe6c5e90	-0.23082948
4	0x3dfb65fe	0.12275313
5	0xbd86a022	-0.06573512
6	0x3cfafaed	0.030637229
7	0xbd321a16	-0.04348191
8	0x3df84c9a	0.121239856
9	0x3e12bd16	0.14329943
10	0x3e218064	0.15771633
11	0xbe16ee07	-0.14739238
12	0x3e16a735	0.14712222
13	0xbc15c0ac	-0.009140175
14	0x3cbcbc7b	0.023039093
15	0xbd4572a1	-0.04820502
16	0x3cf448d5	0.029819885
17	0x3d6be00c	0.057586715
18	0x3e4b6ddc	0.19866127
19	0x3cf66ed2	0.03008214
20	0xbe237979	-0.15964307
21	0x38ae446a	8.30971e-05
22	0x3d48c43a	0.04901526
23	0x3e0d95fe	0.13826749
24	0x3e1c7747	0.15279876
25	0x3c137559	0.009000146
26	0x3c50223f	0.012703477
27	0xbe4a8a94	-0.19779426
28	0xbd33b786	-0.043876193
29	0x3e210c65	0.15727384
30	0x3e469435	0.19392474
31	0xbd376671	-0.04477543
32	0xbddfcce3	-0.10927751
33	0x3aed805f	0.0018119923
34	0x3d9f6e84	0.07784751
35	0x3d7822db	0.060580116
36	0x3ebdaf97	0.37048027
37	0xbd3c065f	-0.045904513
38	0x3d733c02	0.0593834
39	0xbe133e06	-0.14379129
40	0x3ce9cbc1	0.02853954
41	0x3dcae7f9	0.099075265
42	0xbc665bdb	-0.014059986
43	0x3e1d8d86	0.15386018
44	0x3d75f61e	0.06004917
45	0xbd95862c	-0.07300982
46	0xbd75d230	-0.060014904
47	0xbd2c76df	-0.04210555
48	0xbc6c89f8	-0.014437191
49	0xbd70d3eb	-0.05879585
50	0x3b7cf13d	0.0038595938
51	0xbd193222	-0.037401326
52	0x3dea8920	0.11451936
53	0x3d441ac2	0.04787708
54	0x3c8638bf	0.01638448
55	0xbdef115a	-0.116732314
56	0x3e24efbc	0.16107076
57	0x3d78791b	0.06066237
58	0x3e444950	0.19168591
59	0x3df934a2	0.12168242
60	0x3e3511f6	0.17682633
61	0x3e4cb71e	0.19991729
62	0xbd03b0af	-0.03215092
63	0xbe58fcf6	-0.21190247
64	0x3e67b2e1	0.2262683
65	0x3d9167f3	0.07099905
66	0xbd4cb363	-0.049975764
67	0xbdc9ec51	-0.09859527
68	0x3c80459a	0.015658189
69	0x3d728513	0.05920894
70	0x3e072ac6	0.1319991
71	0xbdc2acda	-0.09505625
72	0xbd85222f	-0.06500661
73	0x3ddf9de8	0.1091879
74	0x3cb982e7	0.022645427
75	0xbbe2f5de	-0.0069262823
76	0x3b245fb9	0.002508147
77	0x3b941525	0.004519122
78	0xbb5a90c9	-0.0033350459
79	0xbc382875	-0.011240114
80	0xbd6762e0	-0.05649078
81	0x3bd47db3	0.006484711
82	0xbcf65df8	-0.030074105
83	0x3d10af98	0.03532371
84	0xbd06ee9a	-0.032942392
85	0x3e74f753	0.23922472
86	0x3d5c0b92	0.05372197
87	0xbe03625e	-0.12830493
88	0xbd1002c5	-0.03515889
89	0xbcb6bb4b	-0.022306105
90	0x3e1394a0	0.14412165
91	0x3db95566	0.090494916
92	0xbca53bb2	-0.020170067
93	0xbdc267d9	-0.094924636
94	0xbdbe8308	-0.09302336
95	0xbdaa98bf	-0.08329915
96	0x3defe875	0.117142595
97	0x3c7c8512	0.015412586
98	0x3e3af20a	0.18256393
99	0x3e17c8c8	0.14822686

L3.weight f4 [10, 100]
0	0xbf291bbb	-0.6605794
1	0x3d432d46	0.047650598
2	0xbf5147d7	-0.81750244
3	0xbd2586a4	-0.040411606
4	0xbd188592	-0.037236758
5	0x3dae709a	0.08517571
6	0x3e8ffa29	0.28120545
7	0xbe185da3	-0.1487947
8	0x3db62f11	0.08895696
9	0xbe56fdb0	-0.20995212
10	0x3eae014e	0.3398537
11	0x3ea8331f	0.32851502
12	0xbf3e0d26	-0.7423881
13	0xbb60d433	-0.0034306168
14	0xbe15f169	-0.14642872
15	0x3e9510eb	0.2911447
16	0xbe180534	-0.14845735
17	0xbec4186a	-0.38299876
18	0xbe950669	-0.29106453
19	0xbec26f1c	-0.37975395
20	0x3f099433	0.5374176
21	0xbda9d52b	-0.08292612
22	0x3edd4a9f	0.43220994
23	0xbebe0955	-0.37116495
24	0x3ca57d76	0.020201426
25	0xbdfbd1e3	-0.12295892
26	0xbec817c8	-0.39080644
27	0x3d836ac1	0.06416846
28	0x3ea9243f	0.33035466
29	0x3f06a82c	0.5260036
30	0x3ed74bf4	0.42050135
31	0xbf176b8e	-0.5914849
32	0xbe4cbc2e	-0.1999366
33	0xbe171ccb	-0.14757077
34	0x3ee4d06f	0.44690272
35	0xbeb1f630	-0.3475814
36	0xbec0cfe0	-0.37658596
37	0xbe241a6b	-0.16025703
38	0x3ee9bb28	0.456506
39	0x3ea0e29a	0.31422883
40	0x3f091be0	0.5355816
41	0x3f1f1896	0.6214689
42	0x3eff471d	0.49858943
43	0xbe47e875	-0.19522269
44	0xbf18a0cb	-0.5962035
45	0xbed21e6c	-0.41038835
46	0x3e03483e	0.12820527
47	0x3e83e6ab	0.25761923
48	0x3d9bd5bb	0.07609125
49	0x3ebaf6a0	0.36516285
50	0x3dac7239	0.08420224
51	0xbee698d4	-0.45038474
52	0xbe0ee293	-0.13953619
53	0x3da2b2a5	0.0794423
54	0x3ec81421	0.39077857
55	0x3df4ffbf	0.11962842
56	0x3c985c5d	0.01859873
57	0xbef465b1	-0.47733834
58	0x3e2fff58	0.1718725
59	0xbeee02ab	-0.4648641
60	0xbf09f5db	-0.5389077
61	0xbe17f146	-0.14838132
62	0x3da2f53b	0.0795693
63	0x3eca7016	0.3953864
64	0x3eb72461	0.35769942
65	0xbdc09ed8	-0.09405297
66	0xbe64def0	-0.22350669
67	0xbeea65d4	-0.45780814
68	0xbefe24a8	-0.49637341
69	0xbce39c28	-0.027784422
70	0xbe25ae66	-0.16179809
71	0x3e2beb99	0.16789092
72	0xbe982e5f	-0.29722878
73	0xbe570269	-0.20997013
74	0x3d367cbe	0.044552557
75	0xbf428e57	-0.75998443
76	0x3d92193b	0.071337186
77	0xbe729f40	-0.23693562
78	0xbdef6e90	-0.1169101
79	0xbe7adf0f	-0.24499153
80	0xbd071f9b	-0.032989126
81	0xbe34d550	-0.17659497
82	0x3e3fe772	0.18740633
83	0xbdee3956	-0.1163203
84	0x3ed69026	0.41906852
85	0xbe1526ea	-0.14565626
86	0x3de069b8	0.10957664
87	0xbe961370	-0.29311705
88	0x3f49852e	0.7871884
89	0x3f1c8e2a	0.61154425
90	0xbe2e8f54	-0.17046863
91	0x3eafdf0e	0.34349865
92	0x3e919169	0.28431252
93	0xbe0d35ef	-0.13790105
94	0xbd8b60ad	-0.06805549
95	0x3da8c2b9	0.082402654
96	0x3d046e4a	0.032331742
97	0x3d407ad2	0.04699213
98	0xbef2d861	-0.4743071
99	0xbd4bf3e0	-0.049793124
100	0x3e1e7ad4	0.15476543
101	0xbf11c1d5	-0.5693639
102	0xbed988a5	-0.42487064
103	0x3e2a498d	0.1662962
104	0xbeb3ca8d	-0.3511547
105	0x3e246936	0.1605576
106	0xbf15ee8d	-0.58567125
107	0xbd61407f	-0.05499315
108	0xbea0cacc	-0.31404722
109	0x3efcfc8e	0.49411434
110	0xbe1b40f5	-0.15161498
111	0xbf09a57c	-0.53768134
112	0x3f035d16	0.5131391
113	0x3d956a68	0.07295686
114	0xbee039a1	-0.43793967
115	0xbd719906	-0.058983825
116	0xbd5849b7	-0.052804675
117	0x3ea240f3	0.31690177
118	0xbeae4111	-0.34034017
119	0x3eead8b6	0.45868462
120	0xbf097ab5	-0.5370286
121	0x3c29c4c1	0.010361851
122	0xbe978de2	-0.29600435
123	0x3e9fce15	0.31211916
124	0x3f12cfdb	0.5734841
125	0x3b8e56ba	0.0043438347
126	0x3ed407cb	0.41412196
127	0xbf242fe7	-0.64135593
128	0x3f109617	0.5647902
129	0x3d809ce7	0.06279927
130	0xbe0aa7f2	-0.13540629
131	0x3e59fc99	0.21287765
132	0x3e5b0b86	0.21391115
133	0xbe114680	-0.1418705
134	0xbe0be9a9	-0.13663353
135	0xbe9149a9	-0.2837651
136	0xbe81ab0d	-0.25325814
137	0x3f50fdc9	0.81637245
138	0x3eeafb20	0.45894718
139	0x3d7c3a0c	0.061578795
140	0xbf03e5a2	-0.51522267
141	0xbef93676	-0.48674363
142	0xbf11afd9	-0.5690895
143	0x3e9786cd	0.29595032
144	0x3e903e41	0.28172496
145	0x3eb9fd9a	0.36326295
146	0xba5693af	-0.0008185459
147	0x3ea4c36c	0.32180345
148	0xbdc1ec9c	-0.09468958
149	0xbd764a0e	-0.060129218
150	0xbdef9191	-0.116976865
151	0x3dee3266	0.116307065
152	0xbe714309	-0.23560728
153	0xbea318f3	-0.31854972
154	0x3e388f8e	0.18023512
155	0xbea06121	-0.31324103
156	0xbe7b4f76	-0.2454203
157	0x3eb34e2f	0.35020587
158	0x3e0edf76	0.13952431
159	0x3e75e781	0.24014093
160	0xbec65189	-0.3873408
161	0x3f2447e6	0.6417221
162	0x3ee173f9	0.44033793
163	0xbe828e0a	-0.25498992
164	0xbedcd81c	-0.43133628
165	0x3ee2367f	0.44182202
166	0x3ee906a4	0.4551288
167	0x3f109ed2	0.5649234
168	0x3dd9ba3e	0.10631226
169	0xbe1714c6	-0.14754018
170	0xbe83c787	-0.25738165
171	0xbda99a4c	-0.08281383
172	0x3eb2355c	0.34806335
173	0xbe0d84dc	-0.13820213
174	0xbdc0a915	-0.0940725
175	0x3d232fc0	0.03984046
176	0xbd6ab4af	-0.05730122
177	0xbec7ab31	-0.38997796
178	0xbeb4cfe2	-0.35314852
179	0x3dd30f49	0.1030565
180	0xbe6ec38b	-0.23316781
181	0x3c9a3431	0.018823715
182	0xbe58a0ba	-0.21155062
183	0x3ef47530	0.47745657
184	0xbe883bbd	-0.26608077
185	0xbe490906	-0.19632348
186	0xbc10c65f	-0.008836358
187	0xbe803d95	-0.25046983
188	0xbe501ad3	-0.20322733
189	0x3e409b21	0.18809177
190	0xbecf3f4a	-0.40477973
191	0xbf0cc42e	-0.54986846
192	0xbe07fdd8	-0.13280427
193	0xbda1ba1a	-0.07896824
194	0x3e9988d3	0.299872
195	0xbe241609	-0.1602403
196	0xbebb9434	-0.36636508
197	0xbd8fe2ee	-0.07025705
198	0xbe8ec263	-0.2788268
199	0xbe8c8ae7	-0.27449724
200	0x3ebcb3a8	0.36855817
201	0xbee6c8ac	-0.45074975
202	0xbe4f4cd5	-0.20244153
203	0x3f23b302	0.6394502
204	0x3eeca5f4	0.46220362
205	0x3e3b0e9a	0.18267289
206	0x3ee65529	0.44986847
207	0xbd8c80c6	-0.06860499
208	0x3fac2b95	1.34508
209	0x3f1e6252	0.61868775
210	0xbef0a23e	-0.4699878
211	0x3e868386	0.2627222
212	0x3f0d16eb	0.55113095
213	0x3e629423	0.22126822
214	0xbf98c514	-1.1935143
215	0x3ecdaebf	0.40172383
216	0xbd8963bb	-0.06708475
217	0xbeae34f4	-0.34024775
218	0xbe958443	-0.2920247
219	0x3e3fdafe	0.18735883
220	0x3edf987f	0.43671033
221	0x3d866f1b	0.065641604
222	0x3f017904	0.5057528
223	0xbea40be6	-0.32040328
224	0xbf66a8f5	-0.9010156
225	0x3eeabfd3	0.45849475
226	0x3ee1ae9b	0.44078526
227	0x3e953b40	0.29146767
228	0x3ebad43d	0.3649005
229	0x3ed11d18	0.4084251
230	0x3cddda1d	0.027081544
231	0x3e88c62d	0.26713696
232	0x3e554dee	0.20830509
233	0x3d8aaff9	0.06771845
234	0xbd9ce92c	-0.076616615
235	0x3ee0fef0	0.43944502
236	0xbe418ac7	-0.18900596
237	0x3bc22cb8	0.005925741
238	0xbefcfe20	-0.49412632
239	0x3e78a5f9	0.24282064
240	0xbf0c5438	-0.5481601
241	0x3e3df10e	0.18548986
242	0xbf319a9a	-0.6937653
243	0xbe154ace	-0.14579317
244	0xbea9a671	-0.33134797
245	0xbe26a904	-0.16275412
246	0xbe841fe3	-0.25805578
247	0x3d824d27	0.06362372
248	0x3c785496	0.015156886
249	0x3e9cf2b9	0.30653933
250	0xbd6c9c1b	-0.05776606
251	0x3f7f0f05	0.99632293
252	0x3da12949	0.07869203
253	0xbdda4081	-0.106568344
254	0x3f1335c1	0.57503897
255	0x3f2a75e7	0.66586155

L3.bias f4 [10]
0	0xbea0ac1e	-0.31381315
1	0x3e0e1a79	0.13877286
2	0xbd82a331	-0.063787825
3	0xbda99993	-0.08281245
4	0x3e1e6aa5	0.15470369
5	0x3e9ee1d9	0.31031683
6	0xbd188ef7	-0.037245717
7	0x3dad6020	0.084656
8	0xbe8e9359	-0.27846792
9	0x3d63237f	0.055453774
